…
  transform_param {
    scale: 0.0078125
    mirror: true
    mean_file: "D:/MyKinFace/mean/train_parent4.binaryproto"
  }
  data_param {
    source: "D:/MyKinFace/lmdb/train_parent4"
    batch_size: 151
    backend: LMDB
  }
}
layer {
  name: "data_r"
  type: "Data"
  top: "data_r"
  top: "label2"
  include {
    phase: TRAIN
  }
  transform_param {
    scale: 0.0078125
    mirror: true
    mean_file: "D:/MyKinFace/mean/train_child4.binaryproto"
  }
  data_param {
    source: "D:/MyKinFace/lmdb/train_child4"
    batch_size: 151
    backend: LMDB
  }
}
layer {
  name: "concat_data"
  type: "Concat"
  bottom: "data_l"
  bottom: "data_r"
  top: "data"
  include {
    phase: TRAIN
  }
  concat_param {
    concat_dim: 0
  }
}
layer {
  name: "conv11"
  type: "Convolution"
  bottom: "data"
  top: "conv11"
  param {
    name: "conv11_w"
    lr_mult: 1
  }
  param {
    name: "conv11_b"
    lr_mult: 2
  }
  convolution_param {
    num_output: 6
    kernel_size: 3
    stride: 1
    weight_filler {
      type: "xavier"
    }
    bias_filler {
      type: "constant"
    }
  }
}
layer {
  name: "conv12"
  type: "Convolution"
  bottom: "conv11"
  top: "conv12"
  param {
    name: "conv12_w"
    lr_mult: 1
  }
  param {
    name: "conv12_b"
    lr_mult: 2
  }
  convolution_param {
    num_output: 6
    kernel_size: 3
    stride: 1
    weight_filler {
      type: "xavier"
    }
    bias_filler {
      type: "constant"
    }
  }
}
layer {
  name: "pool1"
  type: "Pooling"
  bottom: "conv12"
  top: "pool1"
  pooling_param {
    pool: MAX
    kernel_size: 2
    stride: 2
  }
}
layer {
  name: "conv21"
  type: "Convolution"
  bottom: "pool1"
  top: "conv21"
  param {
    name: "conv21_w"
    lr_mult: 1
  }
  param {
    name: "conv21_b"
    lr_mult: 2
  }
  convolution_param {
    num_output: 16
    kernel_size: 3
    stride: 1
    weight_filler {
      type: "xavier"
    }
    bias_filler {
      type: "constant"
    }
  }
}
layer {
  name: "conv22"
  type: "Convolution"
  bottom: "conv21"
  top: "conv22"
  param {
    name: "conv22_w"
    lr_mult: 1
  }
  param {
    name: "conv22_b"
    lr_mult: 2
  }
  convolution_param {
    num_output: 16
    kernel_size: 3
    stride: 1
    weight_filler {
      type: "xavier"
    }
    bias_filler {
      type: "constant"
    }
  }
}
layer {
  name: "pool2"
  type: "Pooling"
  bottom: "conv22"
  top: "pool2"
  pooling_param {
    pool: MAX
    kernel_size: 2
    stride: 2
  }
}
layer {
  name: "conv31"
  type: "Convolution"
  bottom: "pool2"
  top: "conv31"
  param {
    name: "conv31_w"
    lr_mult: 1
  }
  param {
    name: "conv31_b"
    lr_mult: 2
  }
  convolution_param {
    num_output: 30
    kernel_size: 2
    stride: 1
    weight_filler {
      type: "xavier"
    }
    bias_filler {
      type: "constant"
    }
  }
}
layer {
  name: "conv32"
  type: "Convolution"
  bottom: "conv31"
  top: "conv32"
  param {
    name: "conv32_w"
    lr_mult: 1
  }
  param {
    name: "conv32_b"
    lr_mult: 2
  }
  convolution_param {
    num_output: 30
    kernel_size: 2
    stride: 1
    weight_filler {
      type: "xavier"
    }
    bias_filler {
      type: "constant"
    }
  }
}
layer {
  name: "pool3"
  type: "Pooling"
  bottom: "conv32"
  top: "pool3"
  pooling_param {
    pool: MAX
    kernel_size: 2
    stride: 2
  }
}
layer {
  name: "conv41"
  type: "Convolution"
  bottom: "pool3"
  top: "conv41"
  param {
    name: "conv41_w"
    lr_mult: 1
  }
  param {
    name: "conv41_b"
    lr_mult: 2
  }
  convolution_param {
    num_output: 60
    kernel_size: 3
    stride: 1
    weight_filler {
      type: "xavier"
    }
    bias_filler {
      type: "constant"
    }
  }
}
layer {
  name: "ip1"
  type: "InnerProduct"
  bottom: "conv41"
  top: "ip1"
  param {
    name: "ip1_w"
    lr_mult: 1
  }
  param {
    name: "ip1_b"
    lr_mult: 2
  }
  inner_product_param {
    num_output: 128
    weight_filler {
      type: "xavier"
    }
    bias_filler {
      type: "constant"
    }
  }
}
layer {
  name: "relu1"
  type: "ReLU"
  bottom: "ip1"
  top: "ip1"
}
layer {
  name: "feat"
  type: "InnerProduct"
  bottom: "ip1"
  top: "feat"
  param {
    name: "feat_w"
    lr_mult: 1
  }
  param {
    name: "feat_b"
    lr_mult: 2
  }
  inner_product_param {
    num_output: 80
    weight_filler {
      type: "xavier"
    }
    bias_filler {
      type: "constant"
    }
  }
}
layer {
  name: "slice_features_ip1"
  type: "Slice"
  bottom: "ip1"
  top: "ip1_l"
  top: "ip1_r"
  slice_param {
    slice_dim: 0
  }
}
layer {
  name: "ker_loss"
  type: "KernelLoss"
  bottom: "ip1_l"
  bottom: "ip1_r"
  bottom: "label1"
  bottom: "label2"
  top: "ker_loss"
  loss_weight: 1
  kernel_loss_param {
    sigma_sq: 1
  }
}
layer {
  name: "slice_features_feat"
  type: "Slice"
  bottom: "feat"
  top: "feat_l"
  top: "feat_r"
  slice_param {
    slice_dim: 0
  }
}
layer {
  name: "loss"
  type: "ContrastiveLoss"
  bottom: "feat_l"
  bottom: "feat_r"
  bottom: "label1"
  top: "loss"
  contrastive_loss_param {
    margin: 1
  }
}
I0502 12:17:01.604445  9456 layer_factory.hpp:77] Creating layer data_l
I0502 12:17:01.605445  9456 common.cpp:36] System entropy source not available, using fallback algorithm to generate seed instead.
I0502 12:17:01.605445  9456 net.cpp:100] Creating Layer data_l
I0502 12:17:01.605445  9456 net.cpp:418] data_l -> data_l
I0502 12:17:01.605445  9456 net.cpp:418] data_l -> label1
I0502 12:17:01.605445  9456 data_transformer.cpp:25] Loading mean file from: D:/MyKinFace/mean/train_parent4.binaryproto
I0502 12:17:01.627445 13352 common.cpp:36] System entropy source not available, using fallback algorithm to generate seed instead.
I0502 12:17:01.627445 13352 db_lmdb.cpp:40] Opened lmdb D:/MyKinFace/lmdb/train_parent4
I0502 12:17:02.133445  9456 data_layer.cpp:41] output data size: 151,3,64,64
I0502 12:17:02.248445  9456 net.cpp:150] Setting up data_l
I0502 12:17:02.248445  9456 net.cpp:157] Top shape: 151 3 64 64 (1855488)
I0502 12:17:02.248445  9456 net.cpp:157] Top shape: 151 (151)
I0502 12:17:02.248445  9456 net.cpp:165] Memory required for data: 7422556
I0502 12:17:02.248445  9456 layer_factory.hpp:77] Creating layer label1_data_l_1_split
I0502 12:17:02.248445  9456 net.cpp:100] Creating Layer label1_data_l_1_split
I0502 12:17:02.248445  9456 net.cpp:444] label1_data_l_1_split <- label1
I0502 12:17:02.248445  9456 net.cpp:418] label1_data_l_1_split -> label1_data_l_1_split_0
I0502 12:17:02.248445  9456 net.cpp:418] label1_data_l_1_split -> label1_data_l_1_split_1
I0502 12:17:02.248445  9456 net.cpp:150] Setting up label1_data_l_1_split
I0502 12:17:02.248445  9456 net.cpp:157] Top shape: 151 (151)
I0502 12:17:02.248445  9456 net.cpp:157] Top shape: 151 (151)
I0502 12:17:02.248445  9456 net.cpp:165] Memory required for data: 7423764
I0502 12:17:02.248445  9456 layer_factory.hpp:77] Creating layer data_r
I0502 12:17:02.248445  9456 net.cpp:100] Creating Layer data_r
I0502 12:17:02.248445  9456 net.cpp:418] data_r -> data_r
I0502 12:17:02.248445  9456 net.cpp:418] data_r -> label2
I0502 12:17:02.248445  9456 data_transformer.cpp:25] Loading mean file from: D:/MyKinFace/mean/train_child4.binaryproto
I0502 12:17:02.250445 10604 common.cpp:36] System entropy source not available, using fallback algorithm to generate seed instead.
I0502 12:17:02.250445 10604 db_lmdb.cpp:40] Opened lmdb D:/MyKinFace/lmdb/train_child4
I0502 12:17:02.250445  9456 data_layer.cpp:41] output data size: 151,3,64,64
I0502 12:17:02.259445 12360 common.cpp:36] System entropy source not available, using fallback algorithm to generate seed instead.
I0502 12:17:02.367445  9456 net.cpp:150] Setting up data_r
I0502 12:17:02.367445  9456 net.cpp:157] Top shape: 151 3 64 64 (1855488)
I0502 12:17:02.367445  9456 net.cpp:157] Top shape: 151 (151)
I0502 12:17:02.367445  9456 net.cpp:165] Memory required for data: 14846320
I0502 12:17:02.367445  9456 layer_factory.hpp:77] Creating layer concat_data
I0502 12:17:02.367445  9456 net.cpp:100] Creating Layer concat_data
I0502 12:17:02.367445  9456 net.cpp:444] concat_data <- data_l
I0502 12:17:02.367445  9456 net.cpp:444] concat_data <- data_r
I0502 12:17:02.368445  9456 net.cpp:418] concat_data -> data
I0502 12:17:02.368445  9456 net.cpp:150] Setting up concat_data
I0502 12:17:02.368445  9456 net.cpp:157] Top shape: 302 3 64 64 (3710976)
I0502 12:17:02.368445  9456 net.cpp:165] Memory required for data: 29690224
I0502 12:17:02.368445  9456 layer_factory.hpp:77] Creating layer conv11
I0502 12:17:02.368445  9456 net.cpp:100] Creating Layer conv11
I0502 12:17:02.368445  9456 net.cpp:444] conv11 <- data
I0502 12:17:02.368445  9456 net.cpp:418] conv11 -> conv11
I0502 12:17:02.383445 12992 common.cpp:36] System entropy source not available, using fallback algorithm to generate seed instead.
I0502 12:17:04.791445  9456 net.cpp:150] Setting up conv11
I0502 12:17:04.791445  9456 net.cpp:157] Top shape: 302 6 62 62 (6965328)
I0502 12:17:04.791445  9456 net.cpp:165] Memory required for data: 57551536
I0502 12:17:04.791445  9456 layer_factory.hpp:77] Creating layer conv12
I0502 12:17:04.791445  9456 net.cpp:100] Creating Layer conv12
I0502 12:17:04.792445  9456 net.cpp:444] conv12 <- conv11
I0502 12:17:04.792445  9456 net.cpp:418] conv12 -> conv12
I0502 12:17:04.809445  9456 net.cpp:150] Setting up conv12
I0502 12:17:04.809445  9456 net.cpp:157] Top shape: 302 6 60 60 (6523200)
I0502 12:17:04.809445  9456 net.cpp:165] Memory required for data: 83644336
I0502 12:17:04.809445  9456 layer_factory.hpp:77] Creating layer pool1
I0502 12:17:04.809445  9456 net.cpp:100] Creating Layer pool1
I0502 12:17:04.809445  9456 net.cpp:444] pool1 <- conv12
I0502 12:17:04.809445  9456 net.cpp:418] pool1 -> pool1
I0502 12:17:04.809445  9456 net.cpp:150] Setting up pool1
I0502 12:17:04.809445  9456 net.cpp:157] Top shape: 302 6 30 30 (1630800)
I0502 12:17:04.809445  9456 net.cpp:165] Memory required for data: 90167536
I0502 12:17:04.809445  9456 layer_factory.hpp:77] Creating layer conv21
I0502 12:17:04.809445  9456 net.cpp:100] Creating Layer conv21
I0502 12:17:04.809445  9456 net.cpp:444] conv21 <- pool1
I0502 12:17:04.809445  9456 net.cpp:418] conv21 -> conv21
I0502 12:17:04.822445  9456 net.cpp:150] Setting up conv21
I0502 12:17:04.822445  9456 net.cpp:157] Top shape: 302 16 28 28 (3788288)
I0502 12:17:04.822445  9456 net.cpp:165] Memory required for data: 105320688
I0502 12:17:04.822445  9456 layer_factory.hpp:77] Creating layer conv22
I0502 12:17:04.822445  9456 net.cpp:100] Creating Layer conv22
I0502 12:17:04.822445  9456 net.cpp:444] conv22 <- conv21
I0502 12:17:04.822445  9456 net.cpp:418] conv22 -> conv22
I0502 12:17:04.825445  9456 net.cpp:150] Setting up conv22
I0502 12:17:04.825445  9456 net.cpp:157] Top shape: 302 16 26 26 (3266432)
I0502 12:17:04.825445  9456 net.cpp:165] Memory required for data: 118386416
I0502 12:17:04.825445  9456 layer_factory.hpp:77] Creating layer pool2
I0502 12:17:04.825445  9456 net.cpp:100] Creating Layer pool2
I0502 12:17:04.825445  9456 net.cpp:444] pool2 <- conv22
I0502 12:17:04.825445  9456 net.cpp:418] pool2 -> pool2
I0502 12:17:04.825445  9456 net.cpp:150] Setting up pool2
I0502 12:17:04.825445  9456 net.cpp:157] Top shape: 302 16 13 13 (816608)
I0502 12:17:04.825445  9456 net.cpp:165] Memory required for data: 121652848
I0502 12:17:04.825445  9456 layer_factory.hpp:77] Creating layer conv31
I0502 12:17:04.825445  9456 net.cpp:100] Creating Layer conv31
I0502 12:17:04.825445  9456 net.cpp:444] conv31 <- pool2
I0502 12:17:04.825445  9456 net.cpp:418] conv31 -> conv31
I0502 12:17:04.896445  9456 net.cpp:150] Setting up conv31
I0502 12:17:04.896445  9456 net.cpp:157] Top shape: 302 30 12 12 (1304640)
I0502 12:17:04.896445  9456 net.cpp:165] Memory required for data: 126871408
I0502 12:17:04.896445  9456 layer_factory.hpp:77] Creating layer conv32
I0502 12:17:04.896445  9456 net.cpp:100] Creating Layer conv32
I0502 12:17:04.896445  9456 net.cpp:444] conv32 <- conv31
I0502 12:17:04.896445  9456 net.cpp:418] conv32 -> conv32
I0502 12:17:04.912446  9456 net.cpp:150] Setting up conv32
I0502 12:17:04.912446  9456 net.cpp:157] Top shape: 302 30 11 11 (1096260)
I0502 12:17:04.912446  9456 net.cpp:165] Memory required for data: 131256448
I0502 12:17:04.912446  9456 layer_factory.hpp:77] Creating layer pool3
I0502 12:17:04.912446  9456 net.cpp:100] Creating Layer pool3
I0502 12:17:04.912446  9456 net.cpp:444] pool3 <- conv32
I0502 12:17:04.912446  9456 net.cpp:418] pool3 -> pool3
I0502 12:17:04.912446  9456 net.cpp:150] Setting up pool3
I0502 12:17:04.912446  9456 net.cpp:157] Top shape: 302 30 6 6 (326160)
I0502 12:17:04.912446  9456 net.cpp:165] Memory required for data: 132561088
I0502 12:17:04.912446  9456 layer_factory.hpp:77] Creating layer conv41
I0502 12:17:04.912446  9456 net.cpp:100] Creating Layer conv41
I0502 12:17:04.912446  9456 net.cpp:444] conv41 <- pool3
I0502 12:17:04.912446  9456 net.cpp:418] conv41 -> conv41
I0502 12:17:04.914445  9456 net.cpp:150] Setting up conv41
I0502 12:17:04.914445  9456 net.cpp:157] Top shape: 302 60 4 4 (289920)
I0502 12:17:04.914445  9456 net.cpp:165] Memory required for data: 133720768
I0502 12:17:04.914445  9456 layer_factory.hpp:77] Creating layer ip1
I0502 12:17:04.914445  9456 net.cpp:100] Creating Layer ip1
I0502 12:17:04.914445  9456 net.cpp:444] ip1 <- conv41
I0502 12:17:04.914445  9456 net.cpp:418] ip1 -> ip1
I0502 12:17:04.931445  9456 net.cpp:150] Setting up ip1
I0502 12:17:04.931445  9456 net.cpp:157] Top shape: 302 128 (38656)
I0502 12:17:04.931445  9456 net.cpp:165] Memory required for data: 133875392
I0502 12:17:04.931445  9456 layer_factory.hpp:77] Creating layer relu1
I0502 12:17:04.931445  9456 net.cpp:100] Creating Layer relu1
I0502 12:17:04.931445  9456 net.cpp:444] relu1 <- ip1
I0502 12:17:04.931445  9456 net.cpp:405] relu1 -> ip1 (in-place)
I0502 12:17:04.931445  9456 net.cpp:150] Setting up relu1
I0502 12:17:04.931445  9456 net.cpp:157] Top shape: 302 128 (38656)
I0502 12:17:04.931445  9456 net.cpp:165] Memory required for data: 134030016
I0502 12:17:04.931445  9456 layer_factory.hpp:77] Creating layer ip1_relu1_0_split
I0502 12:17:04.931445  9456 net.cpp:100] Creating Layer ip1_relu1_0_split
I0502 12:17:04.931445  9456 net.cpp:444] ip1_relu1_0_split <- ip1
I0502 12:17:04.931445  9456 net.cpp:418] ip1_relu1_0_split -> ip1_relu1_0_split_0
I0502 12:17:04.931445  9456 net.cpp:418] ip1_relu1_0_split -> ip1_relu1_0_split_1
I0502 12:17:04.931445  9456 net.cpp:150] Setting up ip1_relu1_0_split
I0502 12:17:04.931445  9456 net.cpp:157] Top shape: 302 128 (38656)
I0502 12:17:04.931445  9456 net.cpp:157] Top shape: 302 128 (38656)
I0502 12:17:04.931445  9456 net.cpp:165] Memory required for data: 134339264
I0502 12:17:04.931445  9456 layer_factory.hpp:77] Creating layer feat
I0502 12:17:04.932446  9456 net.cpp:100] Creating Layer feat
I0502 12:17:04.932446  9456 net.cpp:444] feat <- ip1_relu1_0_split_0
I0502 12:17:04.932446  9456 net.cpp:418] feat -> feat
I0502 12:17:04.932446  9456 net.cpp:150] Setting up feat
I0502 12:17:04.932446  9456 net.cpp:157] Top shape: 302 80 (24160)
I0502 12:17:04.932446  9456 net.cpp:165] Memory required for data: 134435904
I0502 12:17:04.932446  9456 layer_factory.hpp:77] Creating layer slice_features_ip1
I0502 12:17:04.932446  9456 net.cpp:100] Creating Layer slice_features_ip1
I0502 12:17:04.932446  9456 net.cpp:444] slice_features_ip1 <- ip1_relu1_0_split_1
I0502 12:17:04.932446  9456 net.cpp:418] slice_features_ip1 -> ip1_l
I0502 12:17:04.932446  9456 net.cpp:418] slice_features_ip1 -> ip1_r
I0502 12:17:04.932446  9456 net.cpp:150] Setting up slice_features_ip1
I0502 12:17:04.932446  9456 net.cpp:157] Top shape: 151 128 (19328)
I0502 12:17:04.932446  9456 net.cpp:157] Top shape: 151 128 (19328)
I0502 12:17:04.932446  9456 net.cpp:165] Memory required for data: 134590528
I0502 12:17:04.932446  9456 layer_factory.hpp:77] Creating layer ker_loss
I0502 12:17:04.932446  9456 net.cpp:100] Creating Layer ker_loss
I0502 12:17:04.932446  9456 net.cpp:444] ker_loss <- ip1_l
I0502 12:17:04.932446  9456 net.cpp:444] ker_loss <- ip1_r
I0502 12:17:04.932446  9456 net.cpp:444] ker_loss <- label1_data_l_1_split_0
I0502 12:17:04.932446  9456 net.cpp:444] ker_loss <- label2
I0502 12:17:04.932446  9456 net.cpp:418] ker_loss -> ker_loss
I0502 12:17:04.932446  9456 net.cpp:150] Setting up ker_loss
I0502 12:17:04.932446  9456 net.cpp:157] Top shape: (1)
I0502 12:17:04.932446  9456 net.cpp:160]     with loss weight 1
I0502 12:17:04.932446  9456 net.cpp:165] Memory required for data: 134590532
I0502 12:17:04.932446  9456 layer_factory.hpp:77] Creating layer slice_features_feat
I0502 12:17:04.932446  9456 net.cpp:100] Creating Layer slice_features_feat
I0502 12:17:04.932446  9456 net.cpp:444] slice_features_feat <- feat
I0502 12:17:04.932446  9456 net.cpp:418] slice_features_feat -> feat_l
I0502 12:17:04.932446  9456 net.cpp:418] slice_features_feat -> feat_r
I0502 12:17:04.932446  9456 net.cpp:150] Setting up slice_features_feat
I0502 12:17:04.932446  9456 net.cpp:157] Top shape: 151 80 (12080)
I0502 12:17:04.932446  9456 net.cpp:157] Top shape: 151 80 (12080)
I0502 12:17:04.932446  9456 net.cpp:165] Memory required for data: 134687172
I0502 12:17:04.932446  9456 layer_factory.hpp:77] Creating layer loss
I0502 12:17:04.932446  9456 net.cpp:100] Creating Layer loss
I0502 12:17:04.932446  9456 net.cpp:444] loss <- feat_l
I0502 12:17:04.932446  9456 net.cpp:444] loss <- feat_r
I0502 12:17:04.932446  9456 net.cpp:444] loss <- label1_data_l_1_split_1
…
